FE2.pt (torch, 13616 bytes, 3 tensors)

fc1.weight f4 [64, 44]
000000 17 1a 3a 3f da b8 69 bf 8d e6 0a 3e 78 14 14 3c
       0.7269606 -0.91297686 0.1356451 0.009038083
000010 40 19 99 3f dd 85 81 be aa 4d e2 bf 62 3c 13 bc
       1.1960831 -0.25297442 -1.7679951 -0.008986564
000020 c8 e7 07 3f 10 56 ae bf ff a1 0f 3f 5c 0d 93 3f
       0.53088045 -1.3620014 0.5610656 1.1488452
000030 5e c6 19 40 34 2d b6 be 1b ae 87 bf 3f 9e 55 3f
       2.4027324 -0.35581362 -1.0600008 0.8344459
000040 17 23 fd be 1c e5 f5 3e 71 a3 67 3f 02 04 4f bf
       -0.49440834 0.4802636 0.90483767 -0.8086549
000050 b3 4f cd bf cf 28 89 c0 0b 22 c9 be c5 9e dc 3e
       -1.6039947 -4.2862315 -0.39283785 0.43089882
000060 81 c0 0e 3e 0d 0d 88 3f 89 b3 a5 3e cd 5c 6b 3e
       0.13940622 1.0628983 0.32363537 0.2298462
000070 94 6d 83 be ec 1b 36 3f 6b 6e ef 3e d9 71 a4 3d
       -0.2566954 0.71136355 0.4676393 0.08029527
000080 f7 e9 8d bf 19 e5 fb 3d f0 18 25 40 96 fa 75 3f
       -1.1087025 0.12299556 2.579647 0.9608549
000090 b1 35 36 c0 97 51 b8 3f ed 51 7a bc 33 5f 43 3f
       -2.847027 1.4399899 -0.015278322 0.7631714
0000a0 6a 78 a3 3e 98 d1 d5 bd 33 9a 55 bf cc fc de be
       0.31927806 -0.104403675 -0.83438414 -0.43552244
0000b0 cb 78 e5 bc 84 60 d7 bd 83 6e 00 be a0 c5 82 3d
       -0.0280117 -0.10516456 -0.12542157 0.0638535
0000c0 f8 d7 61 bc 10 1e f1 bd f1 16 1a be ff 5a d5 3d
       -0.013784401 -0.11773312 -0.15047814 0.10417747
0000d0 4c 23 93 3d 86 a8 58 bc 60 ec 25 3a 43 0b 40 bd
       0.07184467 -0.013223773 0.0006329473 -0.04688574
0000e0 63 7b 20 3d d6 d0 6f 3d e0 27 c1 bc b2 3b 5d bd
       0.03918017 0.05854877 -0.023578584 -0.054012008
0000f0 b1 0e e0 3d 71 ce 25 3d 1c c3 ee bd e2 1d a0 bd
       0.10940302 0.04048008 -0.11658308 -0.078182
000100 bb ee ac bd 06 9a 91 3d 49 20 87 3d c5 19 80 bd
       -0.08443972 0.07109456 0.06597955 -0.06254915
000110 62 9b 66 bc ad 46 47 3d bb 1e 83 bc 2a 8a d1 3d
       -0.014075132 0.048651386 -0.016005864 0.10231431
000120 09 85 b2 bd ab 5e a5 bd aa ca 1a 38 72 5a 4e 3c
       -0.08716781 -0.08074697 3.6905207e-05 0.012594806
000130 a2 e5 64 3c b2 ca 02 bc 80 39 41 bc ab 6b 07 be
       0.013970764 -0.007982897 -0.011793494 -0.13224666
000140 e6 dc 70 bb 41 59 3e 3c be b6 39 bd 20 41 9c bd
       -0.003675276 0.0116179595 -0.045340292 -0.07629609
000150 24 54 e9 bd 4a 61 11 be eb 1c 13 bc ca ab 4f 3c
       -0.11393002 -0.14197269 -0.008979063 0.012675235
000160 f0 04 95 3f 87 8f cc 3e 72 73 cc 3e e5 38 01 c0
       1.1642132 0.39953253 0.39931828 -2.0190976
000170 18 c3 f1 bf aa 5b 4a 3e ac 2e e2 3e 2b 33 84 be
       -1.8887663 0.1976153 0.44176233 -0.25820288
000180 b7 5e 3e 40 77 e1 8f 3e 35 0f 65 3f 12 2b 85 bf
       2.974531 0.28101704 0.8947633 -1.0403769
000190 38 54 bc bd c8 62 50 3f d6 ff 45 3e da d1 41 bd
       -0.09195751 0.8140073 0.19335875 -0.04731927
0001a0 55 71 d9 3e 9f 2f 16 3f 14 06 3c bf ec e1 0a c0
       0.42469278 0.58666414 -0.73446774 -2.1700392
0001b0 62 3f 80 3e e5 20 03 40 93 ac 33 3e d4 fd e9 ba
       0.25048357 2.0488827 0.175463 -0.0017852136
0001c0 67 c6 03 c0 e9 40 2c bf 90 8a 28 3f 3d 75 e7 3d
       -2.0589845 -0.67286545 0.6583643 0.11301658
0001d0 b2 fb ee 3e 12 6a 66 c0 46 ff 47 c0 95 07 85 bf
       0.46676403 -3.600224 -3.1249557 -1.0392939
0001e0 ef d8 f9 be 16 33 0f c0 95 e0 d9 bf f1 4e 66 3e
       -0.4879832 -2.237493 -1.7021662 0.22491051
0001f0 02 4b 05 c0 39 5c 13 c0 dd c5 89 3e d6 b3 50 bf
       -2.082703 -2.3025038 0.2690877 -0.8152441
000200 fa 6c 1c 3c 7a d3 76 bf 78 c4 a3 be 0c ce 5f 3e
       0.009547466 -0.9641644 -0.3198583 0.21855944
000210 05 09 1e bd de a7 90 be e1 eb 01 3f 29 51 48 3f
       -0.03858282 -0.28253073 0.5075055 0.7824884
000220 7d a3 f6 bf f6 36 45 3e 08 e1 a5 bd fb 6e 28 bf
       -1.9268643 0.19259247 -0.08099562 -0.6579434
000230 1f 49 0e c0 13 8a a4 3f 72 ab 22 bf 45 d3 c9 3f
       -2.223213 1.2854637 -0.63542855 1.5767599
000240 6f f2 7a c0 d5 97 01 3f 92 9f 10 3f 85 91 47 be
       -3.921047 0.506223 0.56493485 -0.19489105
000250 5c 4a 50 c0 0c e2 83 3f 17 68 bf 3f 06 17 74 3f
       -3.2545385 1.0303359 1.4953641 0.9534763
000260 7d f4 78 bf 3a 27 65 3f cd f4 c4 3f 49 2f d7 3e
       -0.9724806 0.8951298 1.5387207 0.42028263
000270 e7 78 8f 3e f9 18 13 c0 5f 27 75 be 21 c8 70 3f
       0.2802193 -2.2983992 -0.239408 0.9405537
000280 f9 c9 80 bf 88 4f aa 3f 83 7f b1 be fe f5 db 3e
       -1.0061637 1.3305521 -0.34667596 0.42961115
000290 dd b8 3f bf 8d 0f 86 be 1c 10 93 c0 ff 8f 82 3f
       -0.74891454 -0.2618374 -4.5957165 1.0200194
0002a0 ca 4f fb bf 47 04 dd bf c0 61 55 3e 3f 2d 03 be
       -1.9633725 -1.726693 0.2083807 -0.12810229
0002b0 5f 71 a6 3e d7 f0 45 3f 58 39 a5 3e 68 f5 70 bf
       0.3250837 0.7732062 0.32270312 -0.9412446
0002c0 eb cf 16 bf e3 aa 4e 3e 02 34 fa 3e 17 3b 8b 3e
       -0.5891101 0.20182376 0.48867804 0.2719352
0002d0 39 5c e1 bf 6b cf 3c be f8 0e 0d bf bc ea a6 be
       -1.7606269 -0.18438499 -0.55100965 -0.32600963
0002e0 11 b3 28 c0 07 02 21 bf 0e b3 95 bf f9 9a 7d 3e
       -2.6359293 -0.6289372 -1.1695268 0.24766149
0002f0 da 54 9a c0 9a 4f bc bf 18 48 e2 bf 13 92 b7 bf
       -4.822858 -1.4711792 -1.7678251 -1.4341453
000300 6b 8a 1e be 7b 19 5b 3f 2a 55 c2 3f 8f 38 b7 be
       -0.1548249 0.85585755 1.518224 -0.35785338
000310 3b 78 0e 40 2f ae 59 bf b2 a1 37 3f 20 5f a4 3d
       2.2260883 -0.8503141 0.717311 0.08025956
000320 c0 55 7d 3d 59 29 2b be eb 2c 47 bf cc 9c 03 3f
       0.061849356 -0.16714992 -0.77802914 0.5141113
000330 e9 fd 93 3e c4 a5 55 3f 2f cf 0d c0 05 42 3c bf
       0.28904656 0.83456063 -2.2157705 -0.7353824
000340 15 86 91 3f e1 44 3c bf b4 3a c9 c0 cd 91 34 bf
       1.1369044 -0.735426 -6.288416 -0.70534974
000350 57 d5 57 40 f9 54 62 bf a8 26 b3 bd 33 02 5f c0
       3.3723962 -0.8841091 -0.087476075 -3.4845092
000360 cb 15 3a 3e a6 62 3c c0 b7 27 5d 3e f8 2f e5 3e
       0.18172376 -2.943521 0.21597181 0.4476316
000370 a2 74 8c be f0 02 3e 3f 2c f7 9a bf 18 1a 30 be
       -0.27432734 0.7422323 -1.2106681 -0.17197454
000380 1f 3b 51 3e 98 e9 17 bd 5d b9 e4 be ad 1c 10 3f
       0.20432709 -0.037088007 -0.4467267 0.56293756
000390 0e 20 29 bf ec 93 17 3e 6c 48 fa bf 8f 07 8d be
       -0.66064537 0.14802521 -1.9553351 -0.2754483
0003a0 bd 43 d2 3f 2d ee 65 be e0 69 93 3d 5e 20 49 bd
       1.6426922 -0.22454138 0.071979284 -0.049103133
0003b0 73 c9 4a 3f f4 3a 0c 3f bc fc 8e be a2 0c 7f be
       0.7921364 0.54777455 -0.27927196 -0.24907163
0003c0 08 b5 3c c0 f8 bd c1 3f f0 dd 3e 3d 31 fc 63 c0
       -2.9485493 1.5136099 0.046598375 -3.5622675
0003d0 76 c1 d9 bf 40 c4 6c bf 93 be d8 c0 d6 54 0c c0
       -1.7012165 -0.92486954 -6.7732635 -2.192678
0003e0 e1 a5 c7 bf 7f c2 99 3f a7 f4 af 3e 46 03 ff 3f
       -1.5597497 1.201248 0.34366342 1.9922874
0003f0 47 c4 f6 3f 74 fc 48 bf 41 37 43 40 93 65 80 be
       1.9278649 -0.7851021 3.0502474 -0.25077495

fc1.bias f4 [64]
000000 bd 80 07 3e 35 73 29 be f0 fa 61 3e 15 f6 00 3f
       0.13232704 -0.16547854 0.22068381 0.5037549
000010 b1 d4 0b 3f e2 a7 97 3e 16 6f 8c be 15 c7 b6 3c
       0.54621416 0.29620272 -0.27428502 0.022311727
000020 e0 af 0f bf 1d e0 03 bf cc 0a d2 bd 2a c7 fb bd
       -0.5612774 -0.51513845 -0.102559656 -0.12293847
000030 06 80 0a 3f 89 6c 85 bf 9f 85 3e bf 44 13 43 bf
       0.541016 -1.0423747 -0.7442264 -0.7620127
000040 d1 78 0c 3e 98 8b fa 3d 2a 0c b3 3e 53 c3 db 3e
       0.13717963 0.12233657 0.34970218 0.42922458
000050 2a 0f e8 bd 25 20 48 bf 9e 31 a8 3e a9 a7 62 bf
       -0.11331017 -0.7817405 0.32850355 -0.8853708
000060 21 cc 99 be 39 e4 3b bf 79 a6 86 3e 9f df fb be
       -0.3003855 -0.73395115 0.26298884 -0.49194047
000070 2f a0 d3 3e a6 fa 04 3e 22 3f 24 bf ca 66 39 bf
       0.41333148 0.1298624 -0.64158833 -0.7242247
000080 9a 96 c0 be 39 bf 21 be c4 41 57 be 4e 53 43 be
       -0.376149 -0.15795602 -0.21021181 -0.19074747
000090 29 2f b8 3e 2e 09 31 bf 1a b4 9b 3e 2a 5d 16 bf
       0.3597348 -0.6915463 0.30410844 -0.5873591
0000a0 4a 5a 66 bf e0 d4 44 3f 94 81 26 3c 31 f1 de bd
       -0.8998152 0.7688732 0.01016273 -0.10885847
0000b0 9b a6 f7 3e ee e2 38 3e aa 8d 05 3e 23 ab 1e be
       0.48369297 0.18055317 0.13042322 -0.15494971
0000c0 09 45 8f 3d 96 7d 02 bf 51 28 80 be 86 7e 23 be
       0.06995589 -0.5097288 -0.2503076 -0.15966234
0000d0 65 e0 41 be d4 8d 5d bf 69 5c d2 3e b6 68 01 3f
       -0.18933256 -0.8654454 0.41086128 0.505504
0000e0 18 8d 88 bf 2e 0a 09 be 74 85 e7 3e 21 22 24 bf
       -1.0668058 -0.1338279 0.45219004 -0.64114577
0000f0 78 ca 75 3e 19 92 0a be b5 cc e0 bd 31 55 df 3e
       0.24003017 -0.13532294 -0.10976545 0.43619683

fc2.weight f4 [1, 64]
000000 b2 5c c9 3e ce 99 8f 3d b2 61 37 c0 09 6f 04 40
       0.39328533 0.07011758 -2.8653378 2.069277
000010 e4 80 ff 3f 89 44 38 40 ed 32 95 3f 18 f8 2e 3e
       1.9961209 2.879183 1.1656166 0.17086828
000020 de 87 66 40 47 a7 0b c0 98 d9 aa 3d 71 8b 27 3f
       3.6020427 -2.1820848 0.08342284 0.65447146
000030 68 ac e3 bf 77 54 82 c0 1f 73 e5 c0 cb d2 98 bf
       -1.7786989 -4.0728106 -7.170303 -1.1939329
000040 ae 39 e5 3f 99 22 a1 3f ed a3 b1 be f2 82 e3 40
       1.7908227 1.2588683 -0.34695378 7.1097345
000050 e0 a8 e5 ba e5 7d 76 c0 c5 cc 11 3f a1 d8 b0 40
       -0.0017521642 -3.851434 0.5695308 5.526444
000060 b6 2a 9f c0 f8 70 66 40 e0 a0 ea 40 78 21 36 c0
       -4.9739637 3.600645 7.332138 -2.8457928
000070 82 4f 2a 41 c5 8d 34 3e f0 37 5b bf 3b 09 57 40
       10.644411 0.17632206 -0.8563223 3.3599384
000080 51 89 a9 40 39 fb 3b 3d 61 85 d0 3f 60 34 b0 be
       5.2980123 0.04589388 1.6290704 -0.3441496
000090 f4 d8 02 c0 cd fa 68 c0 ad 73 4c 3e 4f 7c 12 41
       -2.0444918 -3.6403077 0.19966002 9.155349
0000a0 0c 2c 19 41 05 15 e3 bf e1 39 7a 3c 17 f6 f9 bc
       9.573254 -1.774079 0.0152725885 -0.030512853
0000b0 5c a0 13 41 43 98 6b c0 ce 98 01 c0 13 7a 2f 3c
       9.22665 -3.6811683 -2.0249515 0.010710257
0000c0 33 45 0c bf 95 40 36 40 f7 70 be bf ca 1c e2 3e
       -0.5479309 2.8476918 -1.4878224 0.4416259
0000d0 41 d0 a3 be 94 c2 d5 c0 29 e5 e7 bf 83 5b e9 3f
       -0.31994823 -6.680002 -1.8116809 1.8231052
0000e0 cd 25 f4 c0 22 5b 44 bf 59 58 84 c0 e5 ca 9e c0
       -7.6296144 -0.7670156 -4.1357846 -4.9622674
0000f0 be 94 d2 3f bb dd 16 c1 18 d7 ab bd 60 63 3c c0
       1.6451643 -9.429133 -0.08390635 -2.9435654
