FE3.pt (torch, 44336 bytes, 3 tensors)

fc1.weight f4 [64, 164]
000000 8f 0c a1 3d d0 39 97 bf 01 bf 34 3d f2 14 d5 be
       0.078637235 -1.1814518 0.044127468 -0.41617543
000010 25 46 1f 3f 2e 7b 25 3e 70 4a 40 bf da 38 7e bf
       0.6221641 0.1616027 -0.7511358 -0.993055
000020 84 5e d1 be af 59 17 3f da 72 90 3f 77 84 92 bf
       -0.40892422 0.5912122 1.128505 -1.1446675
000030 e8 ae fe 3f d3 36 e6 be 02 7c 09 40 30 e1 35 bd
       1.9897127 -0.44963703 2.1481938 -0.04440421
000040 86 9e 11 bd 15 54 1e bf c5 5f 0f c0 08 18 d9 3d
       -0.03555157 -0.6184705 -2.2402203 0.10600287
000050 f7 17 d7 be 6d 4b 1c 3f 25 52 cb be 9d 34 07 bd
       -0.4201047 0.6105259 -0.3971111 -0.03300916
000060 7c 56 76 bf b8 18 83 3e bd 67 43 c0 d8 cc 35 bf
       -0.96225715 0.25604796 -3.0532067 -0.7101569
000070 fb 05 72 bf 79 72 85 bf af cb 31 be f4 22 23 3f
       -0.94540375 -1.0425559 -0.17362855 0.6372521
000080 90 db f7 bf 6f 00 47 bf 10 66 17 40 e6 4f a4 be
       -1.936388 -0.77735037 2.3656044 -0.32092208
000090 be ee 17 3e 04 69 c0 3f 58 f6 26 3e 09 3e b1 be
       0.14837167 1.5032048 0.1630491 -0.34617642
0000a0 4a 9b 09 3f 04 f0 3d 3f e8 d8 1d 3f 55 72 d1 be
       0.5375258 0.7419436 0.616591 -0.4090754
0000b0 15 4f a2 bf 3c ba 8e 3f dc ad c3 3f 30 d2 0e c0
       -1.2680384 1.1150584 1.5287433 -2.2315788
0000c0 5d 3e 08 40 b6 ee 0e bf 5c c9 90 40 c1 d8 f0 3b
       2.1288064 -0.55832994 4.52458 0.007350058
0000d0 2c 79 08 40 93 03 6f 3f 88 8f 41 bf 66 dd 0e 40
       2.1323957 0.9336483 -0.75609636 2.232263
0000e0 3e 06 96 bf c6 ed 17 40 70 a2 d2 3f 6d ab dd 3f
       -1.1720655 2.3738875 1.6455822 1.731794
0000f0 e8 83 d0 3d 43 b6 2d 40 ee 97 84 c0 85 6c 0d 40
       0.10181409 2.7142494 -4.143546 2.2097485
000100 7d 93 5d 3f d6 ee 15 c0 d9 4d 19 3e e9 64 be 3e
       0.86553174 -2.3427024 0.14971103 0.37186363
000110 d0 a7 04 3e c8 01 46 bf 8e bb 86 40 80 c9 fa be
       0.1295464 -0.7734647 4.210395 -0.48981857
000120 c6 05 25 40 6f 99 20 40 97 d9 d3 be 52 bf 87 bf
       2.5784774 2.5093648 -0.41376945 -1.0605261
000130 76 ef aa be 03 0b 2f 40 72 65 30 40 ba 8b 26 3e
       -0.3338582 2.735047 2.7561917 0.16264239
000140 75 63 0a 3f df 73 c5 3d 80 80 b3 bf f0 7a bc 3f
       0.5405801 0.09641241 -1.402359 1.4725018
000150 94 66 6a 3f 20 72 9c 3f 12 e7 bb 3e 30 09 8d 3f
       0.9156277 1.2222328 0.3669973 1.1018429
000160 4a 5c 92 bf d4 9c 93 bd dc 63 2a 3d 49 a0 5c 3f
       -1.1434414 -0.07207647 0.04159914 0.86182076
000170 e7 a2 73 bb aa d4 44 c0 43 3a d6 bf d4 fc f6 be
       -0.0037175955 -3.07548 -1.673653 -0.48239768
000180 a3 1f 17 be b1 7e d9 bf 58 cd a3 3f 35 59 46 bf
       -0.14758162 -1.6991788 1.2797041 -0.7747987
000190 97 bd 6f 3f e7 a5 41 3f d0 93 a8 be a3 89 97 3f
       0.93648666 0.7564377 -0.32925272 1.1838878
0001a0 0b a0 83 bd b1 6c 0e 3f 9d 0b 35 3f 99 b2 2a 3f
       -0.0642701 0.556346 0.70720845 0.6667877
0001b0 30 74 b6 3e 3c fa a4 bf 66 2c 90 3f c3 19 1a c0
       0.3563552 -1.2888865 1.1263549 -2.4078224
0001c0 f9 7a 79 be 09 29 74 3d 3f 5d 10 c0 80 bb 4d bf
       -0.24363317 0.059609447 -2.2556913 -0.8036423
0001d0 3d 00 3e c0 cf 2a c7 bf ab a9 95 bf b0 c3 cb 3f
       -2.9687645 -1.5559939 -1.1692404 1.5919094
0001e0 77 58 80 c0 2a 42 07 3f c1 c0 5e 3f 71 9b 42 c0
       -4.010799 0.52835333 0.8701287 -3.0407374
0001f0 00 f2 c4 3c 67 64 a2 bf 36 24 73 3f c5 e0 a4 3f
       0.024041176 -1.268689 0.9497713 1.2881094
000200 b0 f8 b6 bd 6d 91 5b bf b3 a9 cf be 2c 73 87 3f
       -0.08934152 -0.8576878 -0.40559158 1.0582023
000210 3f 28 5c c0 e5 1c ab bc a1 4e 86 3f e0 c0 c4 3e
       -3.4399564 -0.020887801 1.0492746 0.38428402
000220 4b bd 09 c0 12 e2 8d 3f 2e 5b 1d 3f 3e 1a 75 be
       -2.1521785 1.1084616 0.61467254 -0.23935792
000230 40 c0 64 3f bd 00 67 bf 57 43 79 bf 0f d8 b6 be
       0.8935585 -0.902355 -0.9736838 -0.35711715
000240 75 84 49 40 6a 3c 0e bf 14 17 4b be b1 42 4a 40
       3.1487095 -0.55560935 -0.19833022 3.1603205
000250 d4 03 ae be ea 46 7e 3d db e3 6a be e9 88 cd 3f
       -0.33987296 0.062079348 -0.22938482 1.6057407
000260 21 a5 49 3f 19 f6 db 3f 2a 12 e0 3d c1 ac c7 be
       0.7876759 1.7184478 0.109409645 -0.38998988
000270 ce a4 19 3f b8 bf b6 3d 9f 44 d5 be e5 16 80 3f
       0.60017097 0.08923286 -0.41653916 1.0006987
000280 3e 32 6e 3f dc ea d1 3e 78 b0 a0 3f 8a 60 82 bc
       0.93045413 0.40999496 1.2553854 -0.015915174
000290 e5 2c 2e bf db e7 5e 3c 70 8e 9d bf 1d 1e 20 3d
       -0.68037254 0.013605083 -1.2309093 0.03909122
0002a0 e3 bb 6e bc e4 2c 99 be 00 10 a0 3e 55 2b ec be
       -0.014571163 -0.2991706 0.31262207 -0.4612681
0002b0 55 da 38 3f 7c 89 d0 bd 45 64 3a bf 45 ee 86 3f
       0.7220815 -0.10182473 -0.7280925 1.0541464
0002c0 c1 9c 6a 3c a5 f5 c8 be 39 ff 26 c0 b1 1d 21 be
       0.0143196 -0.39249912 -2.6093276 -0.15733983
0002d0 6c b6 83 3e 19 d8 01 bf b4 ec 4a 3f 71 6e 3e 3e
       0.25725114 -0.50720364 0.7926743 0.18596818
0002e0 2b be 8f bd 29 e4 6e 3f 3d f9 a0 3e 17 e1 2e bf
       -0.070186935 0.93316895 0.31440154 -0.6831221
0002f0 04 ca 08 bf 3a 1e 21 bf 61 f4 44 3f 2d ac 8a bf
       -0.5343325 -0.6293675 0.7693539 -1.0833794
000300 3a 09 53 bf c8 7b 7e 3f c1 f4 cb 3f 76 35 83 3e
       -0.82435954 0.99407625 1.5934068 0.25626725
000310 c8 e8 56 bc 57 6f 2a 3e 8b 7f 0e 3f 78 37 50 bf
       -0.013117023 0.16644035 0.55663365 -0.8133464
000320 ac 45 aa bf ce 3b 12 3f 7e ec aa be 6c f9 08 3f
       -1.3302512 0.57122505 -0.33383554 0.5350559
000330 76 08 5b 3d 98 31 36 3f 2c 68 19 3f 6c de bf be
       0.053474866 0.71169424 0.5992458 -0.37474382
000340 53 b7 0a 40 be 68 91 3f 0a b1 0b 3f 0a 61 32 40
       2.1674392 1.136009 0.54567015 2.7871728
000350 0a d0 6d 3f 5c 9f d3 be 68 1b 5c c0 8a 94 ae 3f
       0.9289557 -0.4133252 -3.4391727 1.363908
000360 ee 61 c2 3d 67 f4 8d 3d 8d 16 b2 3f 09 ea 9e be
       0.09491335 0.06931382 1.3913132 -0.3103793
000370 46 03 bd 3e 92 47 17 c0 7d 92 21 3e 15 57 f4 3e
       0.3691656 -2.3637433 0.15778537 0.47722688
000380 38 52 db 3e 87 e2 0a bf 1c 78 8b 3f 62 37 20 c0
       0.42836165 -0.54251903 1.089603 -2.5033803
000390 6f f3 9f bd 4e 3d 1a 40 aa de 11 40 de b4 55 3e
       -0.07810103 2.4099917 2.2792153 0.20869777
0003a0 c4 2e 01 c0 05 84 ae 3f 2b cc 4c 3e 9b 51 5d bf
       -2.0184793 1.3634039 0.19999759 -0.86452645
0003b0 96 3e 18 c0 41 82 29 3f 27 70 a0 be 16 9e 5c 3f
       -2.37882 0.66214377 -0.31335565 0.8617872
0003c0 3a ad 4d 3e 64 a5 2b c0 d5 f5 07 c0 8d 95 f6 be
       0.20085612 -2.6819696 -2.1243794 -0.48160973
0003d0 f0 61 af 3e 30 ad 31 3d db b4 c4 3f 66 c4 f7 3e
       0.34254408 0.043378055 1.5367693 0.48392028
0003e0 5e a8 8e bf 13 4d b4 3f 82 7a 1e 3f 09 fb 0b be
       -1.1145132 1.4086021 0.6190568 -0.13669981
0003f0 72 32 af 3d b5 7d 1a bd c2 23 f5 3e 34 ac 40 bf
       0.085545436 -0.03771754 0.47878844 -0.7526276

fc1.bias f4 [64]
000000 3d a6 b9 3e 30 a9 58 bf d8 0a a0 be f5 1b 3e 3c
       0.36259642 -0.8463316 -0.31258273 0.011603345
000010 5a f0 51 bf 1a d7 ab bd 09 16 3a 3e 5d 73 37 bf
       -0.8200737 -0.08390637 0.18172468 -0.71660405
000020 bf 87 22 bf 2e 16 1e 3d ac 5a 87 3e 74 74 d5 be
       -0.6348838 0.03859537 0.26436365 -0.4169041
000030 46 c0 c9 bd e7 0e b6 3e 68 56 4f 3e 77 46 09 3f
       -0.098511264 0.35558245 0.20247805 0.53623146
000040 2f 30 1b bf bb 3c b0 bd a9 aa 1c 3e 87 66 97 bf
       -0.606204 -0.086053334 0.15299477 -1.1828164
000050 c0 89 db be 38 5d 88 3e 4a 9a 6c 3e e2 54 f7 3e
       -0.42878532 0.2663362 0.23105732 0.48306948
000060 c2 f7 c1 be 43 12 44 bf 06 07 e0 3e c5 2d 77 be
       -0.37884337 -0.76590365 0.43755358 -0.24138553
000070 3c be 8f bd 60 50 63 bd c5 8f b0 3e 82 b6 86 bd
       -0.07018706 -0.055496573 0.34484687 -0.06577779
000080 9b 86 7a 3e 5d b4 ca bc 0d ab a2 bc 96 70 7f 3e
       0.2446541 -0.024744207 -0.019856954 0.24945292
000090 fd 0b 82 bf 16 ca d7 be 4c 13 67 bd b5 a6 05 bd
       -1.0159909 -0.42146367 -0.056414887 -0.032629687
0000a0 11 45 84 bd 91 0c cf bb 28 e4 ed 3e 5c f6 4f bd
       -0.06458486 -0.0063186367 0.46463132 -0.050772056
0000b0 04 ab 8d 3e 8a 44 57 bf e8 0f ba 3e 99 0f 63 bf
       0.27669537 -0.8408896 0.3634026 -0.88695675
0000c0 9b e4 d7 3e 03 f0 c3 be 18 58 77 3d 72 62 0c 3f
       0.421666 -0.38269052 0.060386747 0.54837716
0000d0 4d a2 44 be 95 ae 49 bf 22 4a 97 bd 5d f7 6b 3f
       -0.19202538 -0.78782016 -0.073871866 0.9217432
0000e0 0c 6f 23 bd 75 59 1d bf 09 68 5f 3e 0a 11 cb 3e
       -0.039900824 -0.61464626 0.2181703 0.39661437
0000f0 9e 5f 2e be 4d 45 2f 3f 01 ce 65 3d f4 da 80 bf
       -0.17028663 0.6846512 0.056104664 -1.0066819

fc2.weight f4 [1, 64]
000000 4a c0 a4 40 d0 bb 9c c0 b2 d6 d6 40 a1 45 8e 3f
       5.148473 -4.8979263 6.713708 1.1114999
000010 ac c5 19 c0 cb 7b 26 3d 4c ee 9d 40 81 c9 6b 40
       -2.40269 0.040645402 4.935339 3.6841738
000020 8a 37 c5 3c 38 4a 81 3f 08 58 2e 40 24 1d 2e 40
       0.024074335 1.0100775 2.724123 2.7205286
000030 15 2a 89 3d 3d a8 cd 40 24 ac 76 3f 15 f7 36 40
       0.0669748 6.426787 0.96356416 2.8588307
000040 22 cd ce 40 07 c3 20 bd bf 9f 22 40 99 34 23 40
       6.4625406 -0.039248493 2.5410001 2.5500853
000050 05 e7 ef bf 49 40 be 40 15 69 30 3f 78 28 54 c0
       -1.8742377 5.9453473 0.6891034 -3.31497
000060 b1 de a5 3f 08 2a 16 40 76 ee 79 40 e4 dd 4b 3f
       1.2958585 2.3463154 3.9051795 0.79635453
000070 0c 10 81 40 28 59 a2 3c 95 3a 6d bf 04 52 09 bb
       4.033209 0.019817904 -0.92667514 -0.0020953426
000080 b6 67 f9 3f 03 1f ea 3d cc 26 1b 3f 60 c9 6e 3f
       1.9484775 0.11431696 0.60606074 0.93276024
000090 37 49 b3 c0 53 a8 91 c0 9a 69 b7 bd 67 47 b9 bd
       -5.6026874 -4.5517974 -0.08955689 -0.09046822
0000a0 c3 90 89 bb 84 de c5 bc 97 80 8e c0 96 a5 d9 bf
       -0.004198165 -0.024153955 -4.453197 -1.7003658
0000b0 14 b9 6f c0 cf f5 29 40 70 ed 88 40 db aa 06 40
       -3.7456713 2.655628 4.278984 2.1041782
0000c0 36 46 78 bf f4 aa 82 be 7b 86 d9 3f b5 43 aa bf
       -0.96982133 -0.25521052 1.6994165 -1.3301913
0000d0 ba a6 18 bc c6 e5 5a 40 17 29 8e bd ce a3 eb bf
       -0.009317094 3.4202743 -0.06941431 -1.8409364
0000e0 d2 1b 5e bf da dd 36 3e 32 e6 6d 3f 8b 59 b9 40
       -0.867612 0.17858067 0.92929375 5.7921805
0000f0 82 57 1e 40 fc aa b3 3f a7 7c af c0 64 a7 ba c0
       2.474091 1.4036555 -5.4839664 -5.8329334
