FE4.pt (torch, 128816 bytes, 3 tensors)

fc1.weight f4 [64, 494]
00000000: d2b4 97bd 8091 e73d 10f5 7ebf c638 a23f
00000010: 81b2 fc3d 7eca 3bbe 77a9 2dbf f061 32bf
00000020: d4af b03c c5e1 53bf f4f5 66be 5e27 fa3e
00000030: 277f 23bf 887b 2fbe e634 7bbf 2c28 9ebf
00000040: fbe7 293f 7f98 8bbe 1c22 3b3f 9a46 03be
00000050: 360c 6dbe 6434 e7be 9d39 453e 11a1 28bf
00000060: 0837 84be 790f 81be c47d 3abe 765b 0ebf
00000070: bb4b 54bf d8c8 0340 7d09 193f 47e9 5dbe
00000080: 534e 16c0 baab 5abd 6ccb e5be ce36 42be
00000090: d475 45bf c795 23bf 6c2f 47be 4108 22bd
000000a0: 4638 843b 75a7 e93c a6fa 35bf b4f4 d0be
000000b0: 2c52 1fbe 4f8c 3abf da8d f03e 637c 003f
000000c0: 19ae acbf 31b7 5dbe 6aa1 febf b78c efbe
000000d0: 7524 1bbf d47b 52bc f3f2 16bf 484f 66bf
000000e0: f6db 27be 3458 80bf 54c9 65bf 1401 733f
000000f0: e257 053e fc19 473e 2ae4 57be b577 18be
00000100: d87f 50be e7cd 5d3f ba05 8ebe 0693 43be
00000110: c9ce 0ac0 c1c3 95bf b585 09c0 2a98 23be
00000120: 6f3b bcbf 0485 28bf e4b0 58be ab48 17bc
00000130: 4aab 62bd b00e d1bf 3378 59bf 14b9 f0bf
00000140: 418f 483f d5bc 873e 4040 cd3f 7245 9c3e
00000150: 3ec3 45be 455e c63e 6de4 4a3f 640f 0dbe
00000160: bb1c 7a3e 0e7c a6bd 0aba 5fbe 95b8 e4be
00000170: 2ba3 c7bd 4d34 7e3f ef9d 4a3e e754 44be
00000180: f38b fabf e204 853f bbdd 00be 0fec 49be
00000190: 4b9b 8bbf ae28 7e3d ae3c 2bbe 6e65 a6bd
000001a0: eb63 f6bc 0434 e73e 18ea b93e 70b4 9b3e
000001b0: 9241 41bf 741b 8abd d93f 083f 70dd 6dbe
000001c0: 34f2 e53b b9ca 13bf ec74 063f 23b8 9c3d
000001d0: 2f10 16be 35c9 20c0 3875 10bd 0c0d d03e
000001e0: 6d3d 57be 31e5 e7be a491 3fbe bc3d 1ebe
000001f0: 2247 1dbb 9656 f9bc e613 b4be 5bf3 2dbf
00000200: a803 23bf 22f5 f63f d5c4 da3e d677 25be
00000210: b5ff 88c0 f340 03bd 75c2 e1be b7fb 52be
00000220: 5211 c1bf 2900 23bf ec03 4ebe 6ae2 fe3b
00000230: c9cf 53bd 82e4 84bf f49d 10c0 342a b53e
00000240: 0cda debf 31d1 60be 881c 55bf 0997 aabe
00000250: 443f 59be e8a9 88bd 446b 823c 4411 adbf
00000260: 259e 40bf 13a0 70bf 5893 5fbe 27f9 80bd
00000270: 32c0 42bd 8616 abbd 3ba0 7d3b 7558 4ebd
00000280: b2ac 0c3f c86c e63e 8d81 4a3e 6e80 96be
00000290: 6d40 e8be 85a5 5dbf f1d2 ce3e 7e0a dd3e
000002a0: a2e3 f7bf 91d5 71be 6fdb 49c0 f0b2 1d3e
000002b0: d742 48bf e1ca 733e 6d3e e4be 0d2d e1bf
000002c0: aadc 0fbe d725 ffbf 35b6 7abe e247 ee3f
000002d0: 1051 153f 5434 33be dbd7 52be ff0e 66bf
000002e0: cf3e 863f 9281 283f 80f4 62bf a32f 23be
000002f0: b4a1 2dc0 58c2 edbe 015f 5bc0 5c30 31be
00000300: e509 2dc0 a7aa 47bf 6b7e 23be 84a7 6ebd
00000310: 6175 90bc 0ff3 31c0 e1d4 dabf b1d4 82bf
00000320: 1c99 15bf bb8b 763e 975f f5bc 6de2 4cbf
00000330: 720d 62be 7a32 1cbf be35 26bf 5f05 a13f
00000340: ddbf f03d a0c7 043e 3b4c 66be 951b d1bd
00000350: aec3 4f3d 4d55 00bf 049d 17bf 8005 3dbe
00000360: 5dcb 06c0 63dd d5be 0baf 09c0 dad9 5fbe
00000370: 394c d8bf e1fb 1dbe 7862 3ebe 46af afbc
00000380: 7e4d 23bd a030 b2bf bf05 b7be 52f6 b4bf
00000390: 9df8 8b3f a580 933f 90f9 d43f df77 2abe
000003a0: e6b5 7c3f 3922 933f bab3 553e 0eb2 763e
000003b0: cfcb 36be ff39 ccbf 4145 56bd d945 c8be
000003c0: 8f76 1fbe 0d10 4dbf 0069 5e3f a277 57be
000003d0: c4f0 95bd 0e7a 6ebc 9e0c 84bf f379 efbd
000003e0: 2427 88bf e619 0b3f 0a1a 03bf 5e27 6dbe
000003f0: 5aca 55c0 1b8d b7bf 0559 f5bf 1079 41be
-0.074075356 0.11307049 -0.99592686 1.2673576 0.123387344 -0.18338963 -0.6783671 -0.6968069
0.021568216 -0.8276637 -0.22554761 0.4885816 -0.63865894 -0.17136967 -0.9812759 -1.235601
0.663696 -0.27264783 0.7309892 -0.12819901 -0.2314919 -0.45157158 0.19260259 -0.6587077
-0.25823236 -0.25207117 -0.18212038 -0.5560831 -0.82928056 2.0591335 0.597801 -0.2167102
-2.3485305 -0.053386427 -0.4488176 -0.18966219 -0.77132916 -0.6390042 -0.19451684 -0.039558653
0.0040350286 0.028522233 -0.71085584 -0.40811694 -0.1555869 -0.72870344 0.46983224 0.501898
-1.349063 -0.21651913 -1.989301 -0.46787044 -0.60602504 -0.012846906 -0.5896446 -0.89964724
-0.16392502 -1.0026917 -0.8976033 0.9492352 0.13021806 0.19443506 -0.21083131 -0.14889415
-0.20361269 0.8664231 -0.27738744 -0.19099054 -2.1688712 -1.1700364 -2.1487858 -0.15976015
-1.4705638 -0.65827966 -0.21161228 -0.009233634 -0.055339135 -1.6332607 -0.84949034 -1.8806481
0.7834359 0.26511255 1.6035233 0.30521733 -0.1931276 0.38743797 0.792548 -0.13775402
0.24425022 -0.0812913 -0.21848312 -0.44672075 -0.09747919 0.99298555 0.1978681 -0.19173013
-1.9573959 1.0392115 -0.12584583 -0.19718955 -1.0906767 0.062050514 -0.16722366 -0.08124815
-0.030076941 0.45156872 0.36311412 0.304111 -0.7549068 -0.067435175 0.53222424 -0.23229003
0.0070173983 -0.57731205 0.5252216 0.07652309 -0.14654611 -2.5122807 -0.03526804 0.40634954
-0.21019526 -0.45292047 -0.18707901 -0.15453237 -0.0023998697 -0.030436795 -0.3517143 -0.67949456
-0.63677454 1.9293559 0.42728296 -0.16158995 -4.281214 -0.032044362 -0.4409367 -0.20603834
-1.5083411 -0.6367212 -0.20118684 0.0077784555 -0.05171183 -1.0382235 -2.2596407 0.3538376
-1.7410293 -0.219548 -0.8324666 -0.33318356 -0.2121554 -0.06673032 0.015920289 -1.3520894
-0.7524131 -0.93994254 -0.21833551 -0.06297522 -0.047546573 -0.083539054 0.003870024 -0.050377328
0.5495101 0.45004869 0.19775982 -0.2939486 -0.45361653 -0.8658069 0.4039531 0.43172067
-1.9366343 -0.23616625 -3.1540182 0.1540029 -0.7822699 0.23807861 -0.44578877 -1.7591873
-0.1404902 -1.9933423 -0.24483569 1.8615687 0.58326817 -0.1750043 -0.20590155 -0.8986663
1.0487918 0.6582271 -0.8865433 -0.1593614 -2.7129946 -0.46437335 -3.4276736 -0.17303604
-2.703729 -0.7799477 -0.15966193 -0.058265224 -0.017634096 -2.7804601 -1.7096215 -1.0221158
-0.5843675 0.2407674 -0.029952807 -0.80033 -0.22075441 -0.6101452 -0.64925754 1.2579764
0.11755345 0.12966776 -0.22490017 -0.10210339 0.050723724 -0.5013016 -0.5922396 -0.1845913
-2.1061623 -0.41770467 -2.1513088 -0.21860448 -1.6898261 -0.15428115 -0.1859225 -0.021445882
-0.039868824 -1.3921089 -0.3574657 -1.4137671 1.0935246 1.1523634 1.663866 -0.1664729
0.98715055 1.1494819 0.20869341 0.2409136 -0.17851184 -1.5955199 -0.05231214 -0.3911579
-0.1557257 -0.80102617 0.8687897 -0.2104173 -0.07321313 -0.014555467 -1.031635 -0.11693182
-1.0636945 0.5433639 -0.5121161 -0.23159549 -3.3404756 -1.4339937 -1.9167792 -0.18893838

fc1.bias f4 [64]
00000000: b2f1 ce3c 0eba 6dbf 03c3 f3be 1006 1dbc
00000010: 02b2 0fbd c5f3 f53d 5a78 21bf 685f 063e
00000020: c86d 2abe 8e63 fb3a 8001 50bf b84e a33e
00000030: 1bee bb3d 134e 393e ff5f d03e 40f5 ea3e
00000040: 92c7 4ebf 35a7 14bf 05df 29bf 4122 a73e
00000050: 5a3c 2dbd 46a1 76bf 1a27 8b3e 31d8 b63e
00000060: b0d0 55bf 6297 01be 556e 8a3e 3ab7 873e
00000070: 77cd c8be afc0 163f b675 d1be 9ab0 76bf
00000080: cddc 053f 9202 3fbe e7b5 933e f158 9e3e
00000090: 2a36 9b3e 9a9d cebc 89ec 313e 7b8f 063f
000000a0: 0ad7 9d3c 2fa4 22bd e46e 9d3e 9546 ad3e
000000b0: 1539 373e 3d5c 1cbf 0041 0ebe 98c0 ebbc
000000c0: 337b 49bf 43a8 953e 06b9 a1bc f6a0 abbd
000000d0: f279 4abf f44b ca3e 2fa7 b53e a449 9b3e
000000e0: b96d 58bd f6de bfbe cf9e fc3c 501c 7f3e
000000f0: dd2a 38be 71f6 82bc 0841 01bd 9d1f 2bbf
0.025261734 -0.9286202 -0.4760972 -0.009583965 -0.03508187 0.12009386 -0.63074267 0.13122332
-0.1664344 0.001917945 -0.8125229 0.31895995 0.091762744 0.18096189 0.4069824 0.45890236
-0.8077327 -0.5806764 -0.66355926 0.3264332 -0.042293884 -0.96339834 0.2717827 0.35711816
-0.83521557 -0.12655404 0.27037302 0.26506978 -0.39219257 0.5888776 -0.4091012 -0.9636322
0.5229004 -0.18653324 0.28849718 0.30927232 0.3031476 -0.025221635 0.17375387 0.52562684
0.019267578 -0.03970736 0.30748665 0.33842912 0.17892869 -0.61078244 -0.13891983 -0.02877836
-0.7870361 0.29229936 -0.019741546 -0.0838031 -0.79092324 0.39511073 0.35479113 0.3032962
-0.052839015 -0.37474793 0.030837445 0.24913144 -0.17985101 -0.015986653 -0.03155616 -0.66845113

fc2.weight f4 [1, 64]
00000000: b1e9 b2bf 3671 80c0 a704 5640 5c90 b3bc
00000010: 0ca2 b4bd c083 4c40 3083 97bf 1054 9340
00000020: 20cb 7740 7e8b 22bc 05b3 6c40 5af0 0440
00000030: f636 eb3f 4c0d 1b40 93bf bcbf 2e93 9140
00000040: 63a4 2b40 dc19 e3bf e4c4 15c0 91cc 7740
00000050: 438e b43d 43f9 b0bf 364b dc3f 90bd e33f
00000060: eb2d 08c0 648c 6bc0 24dd 4440 4dac 3440
00000070: 2d36 033f 9f9b ebbf d6f1 0b3f 6782 7e40
00000080: 0c18 1140 9e6b 7f3f 9e62 adc0 8edb 3740
00000090: fcb1 663f a606 0440 f554 bebe 0cb8 2cc0
000000a0: 2241 4240 f4ce ba3d 0063 ac3f 02d2 893f
000000b0: 7268 b3bf ee5b 29c0 7ee3 1940 4dbe 0dbd
000000c0: d7fe 45c0 1d9e d03f e58e 9db9 0809 ea3f
000000d0: e9ef 7bc0 d8a9 3740 e6f6 9840 a881 6fbf
000000e0: b071 8bbd a222 36c0 fef6 0a40 83d3 55c0
000000f0: 99d2 a640 783f 55bd 3d3a e53d bbb1 af3f
-1.3977567 -4.0138197 3.344034 -0.021919422 -0.088199705 3.1955414 -1.183691 4.6040115
3.8717728 -0.009920953 3.6984265 2.07717 1.8376148 2.4226866 -1.4745964 4.5492163
2.6819084 -1.7742267 -2.3401423 3.8718607 0.08816197 -1.3826069 1.7210453 1.7792225
-2.1278026 -3.6804438 3.0759974 2.8230164 0.5125454 -1.8406867 0.5466589 3.9767091
2.2670927 0.99773586 -5.418288 2.8727756 0.9011533 2.0629058 -0.37174192 -2.6987333
3.0352254 0.091215044 1.3467712 1.0767214 -1.4016249 -2.646236 2.40451 -0.034605313
-3.0936792 1.6298252 -0.00030051838 1.8284006 -3.936518 2.8697414 4.780139 -0.93557215
-0.068087935 -2.8458638 2.1713252 -3.3410347 5.2132077 -0.05206248 0.11192749 1.3726114
