FE5.pt (torch, 331568 bytes, 3 tensors)

fc1.weight f4 [64, 1286]
0	0xbc124944	-0.008928601
1	0x3c0b2ee0	0.008495063
2	0xbcb0dc7c	-0.02158951
3	0xbd157558	-0.03648886
4	0xbcf9dee6	-0.030501794
5	0xbcfad39e	-0.030618485
6	0xbccfbee8	-0.025359586
7	0xbd223d9b	-0.039609533
8	0xbcad5cb6	-0.021162372
9	0xbc814edb	-0.015784672
10	0xbc90de1b	-0.017684033
11	0x3ba73f99	0.005104017
12	0xbbf7cb12	-0.0075620497
13	0xbcb37eb8	-0.02191101
14	0xbc919fae	-0.017776337
15	0x3bbc3835	0.005744005
16	0xbc801a82	-0.01563764
17	0xbc310f90	-0.010806933
18	0x3b05aa19	0.0020395576
19	0xbc99b882	-0.018764738
20	0x3ba9108d	0.0051594437
21	0x3bee7555	0.0072771707
22	0x3b88fe37	0.0041806954
23	0xbcb9f4b5	-0.022699693
24	0xbcd1e83b	-0.025623431
25	0x3bb141c8	0.005409453
26	0xbce4e29c	-0.027940087
27	0xbcbccfeb	-0.023048362
28	0xbcadae7a	-0.021201361
29	0xbc9406bc	-0.018069617
30	0xbcd75ed8	-0.026290342
31	0xbca57a40	-0.020199895
32	0x3cc90aeb	0.024541339
33	0xbced57f3	-0.028972602
34	0xbb14f166	-0.0022726892
35	0xbcb19fe1	-0.021682682
36	0xbc5f59c9	-0.013632246
37	0x3bd626b1	0.006535374
38	0xb9b6c4cf	-0.0003486038
39	0xbc34c0f0	-0.011032328
40	0xbbe252c8	-0.006906841
41	0x3be3d8c6	0.0069533316
42	0xba13454a	-0.000561793
43	0xbc9611eb	-0.01831909
44	0xbc970edc	-0.018439703
45	0xbbe56ce2	-0.0070015052
46	0xbc718308	-0.014740713
47	0x396040e3	0.00021386477
48	0xbc97ef63	-0.018546766
49	0x3c240dea	0.010013083
50	0x3cb8c542	0.022554997
51	0xbc9de3d9	-0.019273685
52	0xbb353a50	-0.0027653165
53	0x3a0969ca	0.0005241899
54	0x3bd1d033	0.006402993
55	0x3c5455c8	0.012959905
56	0x3c2a0e74	0.010379422
57	0x3c9704d1	0.018434914
58	0xbc183ca1	-0.009291799
59	0xbc53fe8a	-0.012939105
60	0x3b0d0dde	0.0021523158
61	0xbbfbebe1	-0.007688031
62	0xbcdedb89	-0.027204292
63	0x3b4f796c	0.0031658066
64	0x3c772646	0.015084809
65	0xbd05dc2e	-0.032680683
66	0xbc88961a	-0.016673137
67	0xb9eaae5f	-0.00044761875
68	0xbc94925d	-0.018136198
69	0xbd05b3a2	-0.032642014
70	0xbb93bdbc	-0.004508702
71	0xbca20b8b	-0.019780895
72	0xbc97a39b	-0.01851063
73	0xbc6660ea	-0.014061192
74	0xbd05d58d	-0.03267436
75	0x3ccc6eab	0.024955114
76	0x3cb508d6	0.02209894
77	0x3c73cdd1	0.014880613
78	0x3cbd0193	0.02307204
79	0xbcfe5e51	-0.031050833
80	0x3ca1f31a	0.01976924
81	0xbbf2e328	-0.007412333
82	0xbcd91ffd	-0.026504511
83	0xbd046cb9	-0.03233025
84	0xbb9c7da6	-0.0047757206
85	0x3b8be3d9	0.004269105
86	0x3c5ec64b	0.013597081
87	0xbb4f3663	-0.003161811
88	0xbb73089b	-0.0037083987
89	0xbc99a4f9	-0.018755423
90	0x3ca24464	0.019808002
91	0x3b98fab7	0.0046685594
92	0xbab20468	-0.0013581635
93	0xbca3deef	-0.020003764
94	0xbd016055	-0.03158601
95	0xbc8b69c7	-0.017018212
96	0x3ccde9e4	0.025135942
97	0xbbb91a2b	-0.0056488714
98	0x3c5c45ca	0.013444373
99	0xbc58c896	-0.013231417
100	0xbc9ce41f	-0.019151745
101	0xbca18bed	-0.019720042
102	0xbb9f49a6	-0.0048610745
103	0xbaea8dc6	-0.0017895035
104	0xbc936fc7	-0.017997636
105	0xbcca6424	-0.024705954
106	0xbc12eb35	-0.008967211
107	0xbc3b3f39	-0.011428648
108	0xbcd169e9	-0.025563197
109	0x3c4add27	0.012381828
110	0x3c356574	0.011071552
111	0xbbc0f09d	-0.0058880583
112	0x3bfacc52	0.0076537514
113	0xbcd7c862	-0.026340667
114	0xbca61224	-0.020272322
115	0xbc1214a3	-0.008916053
116	0xbbb818c9	-0.005618189
117	0x3bfbc67b	0.007683573
118	0xbbf30755	-0.0074166455
119	0x3b929ea1	0.0044744764
120	0x3c4a9447	0.012364454
121	0xbcccf2bf	-0.025018094
122	0xbcbe69cb	-0.023243805
123	0x3cb93275	0.022607068
124	0x3bf3a8c1	0.0074358885
125	0xbc3408ff	-0.010988473
126	0x3c2ccf90	0.010547534
127	0x3cc22f6c	0.023704253
128	0xbbf5a864	-0.0074968804
129	0xbbc5fb34	-0.0060419086
130	0xbcffc8be	-0.031223651
131	0xbcbc2dd1	-0.022971066
132	0xbcae49d1	-0.021275433
133	0xbc9513e2	-0.018197957
134	0xbc4d3eae	-0.012527151
135	0xbc00d451	-0.00786312
136	0xbc7bf0fb	-0.015377278
137	0x3c1d9d54	0.0096200295
138	0xbcb7e831	-0.022449585
139	0xbc127515	-0.008939047
140	0xbcc30fd4	-0.023811258
141	0x3af57fd4	0.0018730112
142	0xbcdb3eac	-0.026763283
143	0xbbf06b80	-0.0073370337
144	0xbba6d42a	-0.00509121
145	0xbca40fa3	-0.020026987
146	0x3c977048	0.018486157
147	0xbd09aab7	-0.033610072
148	0xbcf53789	-0.029933708
149	0x3b953814	0.004553804
150	0xbb80cccc	-0.0039306637
151	0x3cd53d72	0.026030276
152	0x3bc5d0b9	0.0060368446
153	0x3c02040c	0.007935535
154	0xbc40092b	-0.011720936
155	0x3cd890f2	0.026436303
156	0x3c11b4f8	0.008893244
157	0x3c173dc6	0.0092310365
158	0xba089fde	-0.00052118103
159	0xbaeab456	-0.0017906528
160	0x3cb8e7a6	0.022571396
161	0x3c21e907	0.009882218
162	0xba24c82c	-0.00062859314
163	0x3a3d295a	0.00072159397
164	0x3c5d22a0	0.013497025
165	0x3c442b6c	0.011973243
166	0xbce4d37f	-0.02793288
167	0xbaa7a7ee	-0.0012791136
168	0x3bc8d1e3	0.006128536
169	0x3be504af	0.0069890837
170	0xbc030dde	-0.007998912
171	0x3ba18d87	0.0049302015
172	0xbc7bf52c	-0.015378278
173	0x3c741495	0.014897485
174	0x3c7abb68	0.01530347
175	0xbc17c374	-0.009262908
176	0x3bd211f6	0.0064108325
177	0xbbd92072	-0.0066261822
178	0xbc946e07	-0.018118871
179	0x3c6f9331	0.0146224955
180	0xbae6340d	-0.001756312
181	0xbcb78e2d	-0.022406662
182	0x3c3ac3ab	0.01139919
183	0x3c66426d	0.014053923
184	0xbcaaeb59	-0.020864176
185	0x3c50465a	0.012712086
186	0xbcb0d117	-0.021584077
187	0xbb598267	-0.0033189298
188	0xbc263103	-0.010143521
189	0xbc1dc4da	-0.009629453
190	0xbc3a7d78	-0.011382453
191	0xbced66be	-0.028979655
192	0x3c841e7c	0.016127817
193	0xbc69a641	-0.014260829
194	0xbce4bd95	-0.027922431
195	0xbb37dbc6	-0.002805458
196	0x3c4257e5	0.011861776
197	0x3c088c5c	0.0083342455
198	0xba27ba33	-0.000639829
199	0xbcb9bf11	-0.022674115
200	0xbcaaa956	-0.020832699
201	0xbc7ad37b	-0.01530921
202	0xbbde88dd	-0.0067912177
203	0xbb8b1b31	-0.004245185
204	0xbb704e63	-0.0036667816
205	0x3c53a759	0.012918317
206	0xbcf22305	-0.029557714
207	0x3c6bcb67	0.014391757
208	0xbbc575cf	-0.006026007
209	0x3cb37a7c	0.021908991
210	0xbc693c9f	-0.014235645
211	0xbc8c6bca	-0.017141242
212	0xbc968ce0	-0.018377721
213	0xbc2774cb	-0.010220717
214	0xbc0d31d5	-0.008617838
215	0xbc1486ee	-0.009065373
216	0xbcd15979	-0.02555536
217	0xbca50281	-0.020142796
218	0x3c7860ad	0.015159768
219	0xbce3b6d1	-0.027797135
220	0x3cd9f5cc	0.026606463
221	0x3cb11ee4	0.021621175
222	0xbce72d44	-0.028219827
223	0xbcb46397	-0.022020144
224	0x3c68b277	0.014202706
225	0x3cc11e13	0.02357391
226	0x3b732ae9	0.0037104434
227	0xbbee38b9	-0.0072699455
228	0xbd0c1982	-0.034204014
229	0xbc5c7dc3	-0.013457718
230	0xbc5b8c5a	-0.013400162
231	0xbcbe68c6	-0.02324332
232	0xbb91ee3e	-0.0044534495
233	0x3c5f76b6	0.013639143
234	0xbc52f3c2	-0.012875499
235	0x3bb69e63	0.0055730804
236	0xbb4e3082	-0.0031462018
237	0xbc99629e	-0.018723782
238	0xbc84aba3	-0.016195124
239	0xbc743958	-0.01490625
240	0x3c6074e4	0.013699744
241	0x3b7f6fb7	0.00389765
242	0xbce1ebef	-0.027578322
243	0xbc367d33	-0.011138248
244	0x3bb50182	0.0055238614
245	0xbbd15ba2	-0.0063890973
246	0x3cdb8a22	0.026799265
247	0x3c75943a	0.014988953
248	0xbd13ea6a	-0.036112227
249	0xbc4a81f8	-0.0123600885
250	0xbc778469	-0.015107253
251	0x3c67ab19	0.014139914
252	0xbca78f92	-0.020454202
253	0xbca6751f	-0.02031952
254	0xbca1044e	-0.019655373
255	0x3cb72c35	0.022359947

fc1.bias f4 [64]
0	0xbce4b81a	-0.027919818
1	0xbad6e4eb	-0.0016395127
2	0x3ecbd091	0.3980756
3	0x3e8f0a7f	0.27937695
4	0x3e7dbf67	0.24780045
5	0xbb4cd352	-0.0031253886
6	0xbf650dcd	-0.89474183
7	0xbd11625d	-0.035494197
8	0xbdee25ab	-0.11628278
9	0xbbd0f2bf	-0.006376594
10	0x3ea1cfe2	0.31603914
11	0xbe600ccc	-0.21879882
12	0x3e1f1ff0	0.15539527
13	0xbe83be45	-0.25731102
14	0x3e9611b4	0.2931038
15	0xbe4b180d	-0.19833393
16	0xbd179ae1	-0.03701294
17	0xbce2734e	-0.027642872
18	0x3e9c5230	0.30531454
19	0x3eb77973	0.35834846
20	0x3e7611ff	0.24030302
21	0xbe44cd0f	-0.19218849
22	0xbd6639c6	-0.05620744
23	0xbcad5286	-0.021157514
24	0xbcf10619	-0.029421853
25	0xbf6f7dd1	-0.93551356
26	0xbcca64fa	-0.024706353
27	0xbd378449	-0.04480389
28	0x3e9e9fff	0.30981442
29	0xbf489ae9	-0.78361374
30	0xbd3dea05	-0.046365757
31	0xbefe2015	-0.49633852
32	0x3eb8aefc	0.36071002
33	0xbcf19dd1	-0.029494198
34	0x3ef838fc	0.48480976
35	0x3d81f968	0.063463986
36	0xbc484c0f	-0.012225165
37	0x3e06b526	0.1315504
38	0x3eda03f4	0.4258114
39	0xbf3da979	-0.7408672
40	0xbc835f7c	-0.016036741
41	0x3f634638	0.8877902
42	0xbe20c9ec	-0.15702027
43	0x3f1406e4	0.57823014
44	0xbd011eec	-0.03152363
45	0x3e8645f0	0.26225233
46	0xbe359e68	-0.17736208
47	0x3d92f698	0.0717594
48	0x3e8529a6	0.26008338
49	0xbc543dbb	-0.012954171
50	0xbf01c38e	-0.5068902
51	0x3e875e73	0.26439247
52	0x3efff5e2	0.4999228
53	0x3ecb2292	0.39674813
54	0xbf5eab2a	-0.86979926
55	0xbe12b5a2	-0.143271
56	0x3b5c59a5	0.0033622768
57	0x3f036bad	0.51336175
58	0xbb87b9c3	-0.0041420176
59	0x3e85c4cd	0.2612671
60	0xbe2864a3	-0.1644464
61	0xbe7ea373	-0.24867038
62	0xbdb9a16f	-0.09063994
63	0xbe7fbf39	-0.2497529

fc2.weight f4 [1, 64]
0	0x3dd2d065	0.10293654
1	0xbdbb94ec	-0.09159264
2	0x404be97c	3.1861258
3	0x4090ea0d	4.5285707
4	0x3f1b200c	0.60595775
5	0xbba05296	-0.0048926575
6	0xc0646630	-3.568737
7	0x404d2caf	3.2058523
8	0x4075c3de	3.8400798
9	0xbbb1283e	-0.0054064086
10	0x4096d414	4.7133884
11	0xbfe963ee	-1.8233621
12	0x3fc51a30	1.5398617
13	0x3f77adb4	0.96749425
14	0x4059f650	3.4056587
15	0x40859547	4.1744723
16	0xbc1b5dfa	-0.009482855
17	0xbc51c731	-0.012803839
18	0x4052d59b	3.2942874
19	0xc0808bbf	-4.017059
20	0x3f8f840e	1.1212175
21	0xc0196d63	-2.3973014
22	0x3e96f90f	0.29486892
23	0x3db3a38f	0.08771431
24	0xbdce68e4	-0.100786
25	0x3e97ec5d	0.29672518
26	0x3c78eb10	0.015192762
27	0xbdc1e5be	-0.09467648
28	0x40119d0e	2.2752109
29	0x3f1af431	0.60528857
30	0x3c962746	0.018329274
31	0xbf682938	-0.90687895
32	0xbfa24d0b	-1.2679762
33	0x3c923ff0	0.017852753
34	0x403b895f	2.9302595
35	0x401484a4	2.3205957
36	0xbdd7fa38	-0.10545772
37	0x406135d2	3.51891
38	0x3f23ac2b	0.6393458
39	0xc0114d56	-2.2703452
40	0xbde5cd92	-0.1122085
41	0xbffbbaa1	-1.966633
42	0x3eeb67d3	0.4597765
43	0x40757583	3.8352973
44	0xbd7bad61	-0.061444644
45	0x400342dd	2.050956
46	0x3fc673df	1.5504111
47	0x40026d0b	2.0379055
48	0x3fb760fe	1.4326475
49	0x3d764cf5	0.060131986
50	0x409be58c	4.871771
51	0xc063d613	-3.559941
52	0xc059bebd	-3.4022667
53	0x3fc0756c	1.5035834
54	0xc07acbf6	-3.9186988
55	0x3f719901	0.9437409
56	0xbdadf6c5	-0.08494333
57	0x3ff243b5	1.8926913
58	0xbd7daa01	-0.061929706
59	0x402d6202	2.709107
60	0x3ffdecce	1.9837892
61	0xbffab3f0	-1.9586163
62	0x3ecac177	0.39600727
63	0x3fc9145d	1.5709339
