NN.pt (torch, 4328 bytes, 3 tensors)

fc1.weight f4 [64, 8]
000000 dd 10 60 3f 3e b7 a4 3f 22 40 69 be 0c af 86 bf
       0.8752573 1.2868421 -0.22778371 -1.052217
000010 3a 7e ae bf af 9d 83 3f 85 78 26 c0 27 fe da bc
       -1.3632271 1.0282496 -2.601106 -0.026732517
000020 06 fa 26 c0 d8 cf 66 3f 28 08 77 3f b6 04 13 c0
       -2.6090102 0.90160894 0.9649682 -2.2971625
000030 92 93 b1 bf 8b 14 b9 3e 65 e7 4b 3f f7 b6 43 be
       -1.387316 0.36148486 0.79649955 -0.19112764
000040 e5 db 07 bd 5e 23 b7 3f 37 b2 62 3d 66 e3 03 c0
       -0.033168692 1.4307668 0.05534574 -2.0607543
000050 28 db b0 be 5e 2c 9d 3f c8 7f 53 c0 e3 e6 c4 bd
       -0.34542203 1.2279165 -3.3046741 -0.09614351
000060 fe 28 ae be 03 dd 6a be 15 5f a2 3d 8f fb af be
       -0.3401565 -0.22935872 0.07928292 -0.3437161
000070 0b 05 87 be e1 9d a7 bc 81 50 f4 be bd b3 73 3d
       -0.26371035 -0.020461025 -0.4771767 0.059497584
000080 a4 d9 78 be ac 45 35 bd 2b b8 85 be 75 f5 07 3e
       -0.24301773 -0.044255897 -0.26117072 0.13277228
000090 68 c5 a8 be 81 38 4b be 5c c6 d0 bd 6a 24 19 be
       -0.3296311 -0.19845773 -0.10194084 -0.14955297
0000a0 0a 43 a3 bf b3 c6 6c 3f d9 ab 66 be a3 4b 9d bf
       -1.2754834 0.9249069 -0.22526492 -1.2288707
0000b0 bd 5a 08 c0 03 fe 1b bf 5f 1b 46 3f 37 05 d2 3c
       -2.1305382 -0.60934466 0.77385515 0.025637252
0000c0 8b 95 6e c0 74 7b b1 3f 1e 14 9c bd 80 44 56 bf
       -3.7278774 1.38658 -0.076210245 -0.8369827
0000d0 a4 07 dd be 82 0a a7 3f 9b 62 c0 3d ce cb c4 bd
       -0.43169892 1.3050082 0.093938075 -0.09609185
0000e0 7f 4d 8f 3d 62 85 9a be b3 e9 f8 bd 0a 15 ad be
       0.06997203 -0.30179888 -0.121539496 -0.33805114
0000f0 dd 01 4b 3e ee 8c 30 be de 51 20 be ed 4e 03 bd
       0.1982493 -0.1724126 -0.1565623 -0.03205769
000100 4f 24 19 bf 5e 03 62 3f ef 0d 5c 3f 79 d3 47 bf
       -0.5982103 0.8828639 0.8595876 -0.78057057
000110 95 f9 ff 3f b1 8d 97 bf b2 df 07 c0 7d 4d 6f bf
       1.9998041 -1.1840116 -2.1230283 -0.9347761
000120 8c d3 71 bf 9f f4 e5 be b3 7f 1c 3f 29 ea 1d bf
       -0.9446342 -0.44913194 0.61132354 -0.61685425
000130 61 8c 1b bf 1a 69 52 3d 41 2d 9f 3f 57 08 51 bf
       -0.60761076 0.051369764 1.2435685 -0.8165335
000140 51 b3 82 3f c9 21 fb bd e2 1f 23 3f 09 61 c7 3e
       1.0210973 -0.122623034 0.63720524 0.3894122
000150 bc 4c 80 3f 80 15 ea bf 88 b0 20 3f d5 be 96 be
       1.0023417 -1.8287811 0.62769365 -0.29442468
000160 33 56 4a c0 73 59 13 c0 0d 32 7b 3f bc e9 f0 3f
       -3.1615112 -2.3023345 0.98123246 1.882133
000170 06 a3 bb 3e 2b ce 43 bf de 1b e2 3d c8 ae e3 bb
       0.36647815 -0.7648646 0.110404715 -0.006948326
000180 44 81 f8 3f ff 62 fb 3e 27 29 cd 3d 5a 49 a3 be
       1.9414449 0.49098966 0.10017615 -0.318919
000190 e8 d9 91 be 14 a1 9e 3e 17 af a6 bf a4 21 8b bf
       -0.28486562 0.30982268 -1.3022183 -1.0869641
0001a0 b0 9a 6c 3e 29 5c 43 be e5 67 b6 bd 02 13 98 3e
       0.23105884 -0.19078125 -0.08906535 0.29702002
0001b0 f7 54 06 be 0d 06 12 be b5 10 fc bd da 43 13 be
       -0.13118349 -0.1426012 -0.12307874 -0.14381352
0001c0 13 8d 79 be 18 63 15 3f 65 fb a1 3f f1 2f f5 bf
       -0.24370222 0.5835433 1.2654845 -1.9155256
0001d0 a1 60 c3 bf aa 19 2e 3f 3a 78 19 3f aa f6 2b bd
       -1.5263864 0.6800791 0.59949076 -0.041983284
0001e0 cf ea ab bf e0 91 38 3e ee ca f0 3e 8a 13 8e bf
       -1.3431033 0.18024397 0.47029823 -1.1099713
0001f0 56 bd 98 bf 14 c7 cf be 37 75 c0 be 4c 26 d8 3c
       -1.1932781 -0.40581572 -0.37589428 0.026385449
000200 ff 5f cd bf c6 8c 1f 3d b3 17 01 3f 11 1f c0 3f
       -1.6044921 0.03895261 0.5042679 1.5009481
000210 1b 59 5a c0 72 a5 b1 3e a3 5a b7 bf 34 1f 85 3e
       -3.4116886 0.34696537 -1.4324535 0.2600037
000220 dd 96 3e 40 a2 2a d6 3e 22 06 3e 3d dc e1 41 c0
       2.977958 0.418294 0.046392567 -3.0294104
000230 66 cc 1a bd 67 d6 85 3f d9 d4 57 bd b1 54 9c bd
       -0.037792586 1.0456055 -0.05269322 -0.07633341
000240 75 35 88 3c 1e 8e 1e 3e 2a 1a 8f bd 6b a5 12 3d
       0.016627053 0.15483901 -0.06987412 0.035802286
000250 a8 74 5b 3e c1 54 a2 bc 63 30 43 be 3c e8 6b be
       0.2143122 -0.019815804 -0.19061427 -0.23037809
000260 cc 28 9d 3f dc 71 55 be cb d6 7d be bc b9 da 3e
       1.2278075 -0.20844215 -0.24788968 0.4271983
000270 83 04 09 40 c4 d3 b7 bd db 2d 51 bd 86 3e 2c bf
       2.1409004 -0.08975938 -0.05106912 -0.67282903
000280 a3 ee de be b7 dd 72 3e da f8 25 3f d3 f4 b2 be
       -0.4354144 0.2371739 0.6483284 -0.3495241
000290 d3 56 f2 be 20 ee 32 bf 6b b0 82 c0 0d 36 e2 bf
       -0.47331867 -0.698946 -4.0840354 -1.7672745
0002a0 22 54 75 c0 97 dc 6a bf 48 28 97 be d8 6b 8f 3f
       -3.83326 -0.91742843 -0.2952292 1.1204786
0002b0 3b 82 9e bf 02 a1 b1 bd 0b d8 b9 be 21 38 22 be
       -1.2383493 -0.08673288 -0.3629764 -0.15841724
0002c0 1b f5 2e bf dd ff a6 be 68 2c dd bc 2d 48 1c 40
       -0.6834275 -0.32617083 -0.026998714 2.4419053
0002d0 9d 4a fb bf 58 a8 78 3e ca a4 45 3f 55 ca ed 3c
       -1.9632145 0.24282968 0.77204573 0.029027143
0002e0 39 f9 6c c0 da 8b ae 3f c5 5d 65 bf 4e 3a 03 bd
       -3.7027113 1.3636429 -0.89596206 -0.032038026
0002f0 7d a7 d2 be 4c a6 a1 3f 53 55 61 be d1 53 ea bc
       -0.41143408 1.2628875 -0.22005205 -0.02860442
000300 e0 4c 83 bf 3d 8d 20 3f 64 63 ee 3d 5f 51 99 3f
       -1.0257835 0.6271551 0.11640051 1.1977957
000310 7b d6 a8 c0 85 84 38 bf 09 51 f8 bc 0d 41 dc be
       -5.2761817 -0.7207721 -0.030312078 -0.4301838
000320 e2 15 00 c0 2b bc 76 3e 4e 86 cf 3e f2 3a 89 bf
       -2.0013356 0.24095218 0.40532154 -1.0721114
000330 e0 49 3d bf bd 73 a4 be 0f 2e 06 be cb 2c af bc
       -0.7394085 -0.3211955 -0.13103507 -0.021383664
000340 b2 f2 07 c0 b8 33 45 bd 91 f3 a8 3f 72 a3 e2 bf
       -2.124188 -0.048145026 1.319933 -1.770613
000350 3c 5e a6 c0 08 6a 3d 3f 64 e5 d9 3d 07 da f2 3c
       -5.199003 0.73989916 0.10639456 0.02964498
000360 97 21 ad c0 1d 48 51 bf be 8b e2 3c c1 5d 36 c0
       -5.4103503 -0.8175066 0.027654525 -2.8494723
000370 77 0c 4f 3e c5 85 be 3e c6 81 9c bd a0 60 be bc
       0.20219599 0.37211433 -0.0764194 -0.023239434
000380 31 90 5d 3f 0c b6 51 3f 82 3e 65 bf 98 a9 2f 3f
       0.86548144 0.81918406 -0.89548504 0.68618155
000390 b1 ac 80 3e bf 78 fc 3e ad da 89 3f 3a 5c 93 bf
       0.25131753 0.49310872 1.076986 -1.151252
0003a0 e7 d7 f4 bf a5 ea 3c bf 18 2b 8f bd 0e ae 63 c0
       -1.9128388 -0.7379554 -0.06990641 -3.5574985
0003b0 37 55 e7 be a1 08 6c be 31 c4 49 bd af 31 10 3e
       -0.451822 -0.23050167 -0.04925937 0.14081453
0003c0 7d 84 21 c0 33 f1 2a 3e 86 6d 4c 3e 9e 9b 50 be
       -2.5237114 0.16693573 0.19963655 -0.20371863
0003d0 fd 19 19 c0 4d 9d 67 ba f0 2c 3b 3f 2b 3f 8f 3f
       -2.3922112 -0.00088353903 0.73115444 1.1191152
0003e0 d1 6b b1 3e 8f d1 73 3f 6f ec ba 3e c5 25 f5 3f
       0.3465257 0.95241636 0.3650851 1.9152151
0003f0 39 82 24 3e 44 c8 2b 3e 3c 78 a3 be 91 03 89 3c
       0.16065301 0.16775614 -0.3192767 0.016725333

fc1.bias f4 [64]
000000 a3 86 4c bf 0a 7d 35 bf a0 6a 70 bf ee 8e 21 be
       -0.7989294 -0.7089392 -0.93912697 -0.1577718
000010 18 f4 b4 bc 6f cc 66 3e 7d cf 52 bf 9e 97 8b be
       -0.02208905 0.22538923 -0.8234785 -0.27264112
000020 79 58 0c be c7 13 35 3f 7e 6a a8 bb e1 ce d8 be
       -0.13705625 0.707333 -0.005139648 -0.42345336
000030 db 8d 19 3f c0 5c a8 be 94 e6 e4 be 62 17 5f 3f
       0.5998208 -0.32883263 -0.44707167 0.87145054
000040 44 79 e7 3e e3 bf 18 bf 4b 89 bc be 99 e1 e0 3e
       0.45209706 -0.59667796 -0.36823496 0.43922117
000050 1c 4a aa 3e b5 a1 15 3f 93 51 b2 be 5f 3d 54 bf
       0.33259666 0.5844987 -0.3482786 -0.82906145
000060 1d c0 24 3f 69 c6 57 3f 1f 4f c5 be ae 51 09 3f
       0.6435564 0.84287125 -0.38536927 0.5364026
000070 50 10 fa 3c fd d5 14 3f 7e 84 af be 2a 14 a7 bf
       0.030525357 0.5813902 -0.3428077 -1.3053029
000080 e1 a9 74 3f 1e af 0c bf 61 6d 3e bf b7 d3 0b bf
       0.95571715 -0.5495471 -0.7438565 -0.54619926
000090 cf 08 77 3f 31 16 53 bf 78 fc d6 3e 99 43 27 3e
       0.96497816 -0.82455736 0.41989493 0.1633438
0000a0 2c d4 39 3f 54 dd 2e bf 48 f7 2a be 42 46 90 be
       0.72589374 -0.6830647 -0.16695893 -0.28178602
0000b0 e4 16 17 bf 46 89 52 3f 2a b8 5a 3e da a9 07 be
       -0.59019303 0.8224071 0.21359316 -0.13248387
0000c0 d4 80 80 be 73 49 6c bf 50 36 37 be bc cb 0a be
       -0.25098288 -0.92299575 -0.17891812 -0.13554281
0000d0 ca 43 fc 3d f3 c8 6a 3e da 50 b4 be ec cf 9f 3e
       0.12317617 0.22928219 -0.35217935 0.3121332
0000e0 e2 60 2b bf f4 82 61 3d 51 d0 b8 be b0 61 77 be
       -0.66944706 0.055056527 -0.36096433 -0.24158359
0000f0 99 58 37 3f b3 3d 66 be 3a b5 58 3f 14 dc c7 3c
       0.71619564 -0.22484474 0.8465153 0.024396934

fc2.weight f4 [1, 64]
000000 98 73 95 40 19 f6 f9 40 fc 04 e8 40 0f 51 f6 3c
       4.6703606 7.811291 7.2506084 0.030067949
000010 32 25 c5 bc 43 7b 55 3f b7 a4 0e 41 08 90 a1 3d
       -0.024065588 0.8339121 8.915214 0.078888
000020 28 52 1d c0 72 30 58 bf 9e b1 17 3e b6 e4 70 c0
       -2.4581394 -0.8444892 0.1481385 -3.7639594
000030 38 ac 9a bf 3c b1 72 bd 01 d5 46 c0 a5 5a 4f bf
       -1.2083807 -0.059251055 -3.1067507 -0.8099769
000040 ad ba 0c 40 2f 75 19 c1 97 5b 42 3d 07 1e c3 3e
       2.1988938 -9.591109 0.047450628 0.38108847
000050 27 24 e3 3f 2f 11 29 c0 2d 15 13 40 09 96 2e 41
       1.7745408 -2.6416738 2.2981675 10.91163
000060 6a ab 50 40 8f 7e 3b bf 1f c6 3e 41 e8 4e 46 41
       3.2604623 -0.7323999 11.923369 12.394264
000070 cb a4 9d bf 5e 59 0c 41 1c a5 d4 bf 9a b0 aa c0
       -1.2315916 8.771818 -1.6612887 -5.334058
000080 8f bd 82 bf c1 6e 1a 41 4a ed 1c c0 92 d8 90 bf
       -1.0214099 9.65204 -2.451983 -1.1316092
000090 27 a3 bb 40 30 c9 f6 40 74 1b d4 3f 04 29 99 c0
       5.863666 7.712059 1.6570878 -4.786257
0000a0 89 df f8 be f0 f9 c7 bf 54 70 27 bf eb f8 1f 41
       -0.48608044 -1.562315 -0.65405774 9.998271
0000b0 83 59 36 40 e3 97 fe bf 04 b8 10 40 31 83 13 bf
       2.8492134 -1.9890102 2.2612314 -0.5762206
0000c0 74 c6 b1 3d b0 b6 f2 c0 62 41 c8 be da e7 06 40
       0.0868043 -7.5848007 -0.39112383 2.107901
0000d0 ee ab 60 c0 ff 1f 7b c0 1f 98 a2 3d 7e 31 05 3f
       -3.5104938 -3.923828 0.07939171 0.52028644
0000e0 f1 59 95 c0 03 b4 4e 40 a0 56 7c 3d 50 51 5e bd
       -4.667229 3.229737 0.06160605 -0.054276764
0000f0 02 a3 b6 bf 31 87 91 40 d5 ab 15 c0 82 ba 02 40
       -1.4268496 4.547753 -2.3386128 2.0426335
